stereo_calibration_parameters.npz (npz, 2922 bytes, 9 tensors)

rms_error f8 []
00000000: 14b7 a3f7 5101 1040
4.001289243094806

left_camera_matrix f8 [3, 3]
00000000: 6592 d471 3005 9740 0000 0000 0000 0000
00000010: b707 72eb 73cc 8c40 0000 0000 0000 0000
00000020: 76f2 bbbc 5e7f 9740 e725 08b1 378b 7a40
00000030: 0000 0000 0000 0000 0000 0000 0000 0000
00000040: 0000 0000 0000 f03f
1473.2973092283585 0.0 921.5566014202694 0.0 1503.8425168387162 424.7010965650829 0.0 0.0
1.0

left_distortion_coefficients f8 [1, 5]
00000000: 3797 3ca6 f1d6 c73f cb6c 5f31 b405 e4bf
00000010: d24e ccb9 e77d a3bf 15e8 4673 e483 75bf
00000020: ef1f c051 5bdd d03f
0.18624706856751924 -0.6256962742148969 -0.03806995528262082 -0.005252735504138091 0.2635105417580225

right_camera_matrix f8 [3, 3]
00000000: 557e ee53 659d 9640 0000 0000 0000 0000
00000010: fa6f 33b7 c70c 9040 0000 0000 0000 0000
00000020: 156c acd4 8498 9640 98c8 14a7 907e 8040
00000030: 0000 0000 0000 0000 0000 0000 0000 0000
00000040: 0000 0000 0000 f03f
1447.348952986203 0.0 1027.1950347935767 0.0 1446.1297175351112 527.8206311820713 0.0 0.0
1.0

right_distortion_coefficients f8 [1, 5]
00000000: b344 5826 1a2c b3bf 3f36 0b27 b619 d83f
00000010: ad83 aed0 1547 3dbf c0b1 ed5c 6306 933f
00000020: 745c 4f1b 3c6d dabf
-0.07489169536735822 0.37656930745001554 -0.000446741891829967 0.01857905630770218 -0.41291716258041977

rotation_matrix f8 [3, 3]
00000000: 5bcd 433b 2deb ef3f fc3d 3985 4c9c 6cbf
00000010: 3290 7032 3138 b2bf 71d2 595e eb4b 55bf
00000020: 0cf6 8d99 7ced ef3f 49d0 5642 a832 b1bf
00000030: 04f8 b419 073d b23f 0d20 0160 872d b13f
00000040: 356f a85b acd8 ef3f
0.9974580914990087 -0.003492497877040311 -0.07116992455900187 -0.0012998388787341076 0.9977400778877281 -0.06717921847922627 0.0712437093506822 0.06710096448762233
0.9951993742174411

translation_vector f8 [3, 1]
00000000: a4cd ff99 2d56 bbbf 09df 2d71 a8c2 5ebf
00000010: 0b0b 1955 56f3 9abf
-0.1067837239241301 -0.0018774647657817131 -0.026318882888754874

essential_matrix f8 [3, 3]
00000000: 3d84 36f1 1004 26bf bd13 636f b8c2 9a3f
00000010: 2822 0130 5dca 6dbf 46af 5dbd 7e17 93bf
00000020: 9980 0e58 bcb9 7d3f 82b0 31bd 56af bb3f
00000030: fdde 42a6 687a 603f b3fc 51e2 ca46 bbbf
00000040: dbb8 cf26 01d6 7c3f
-0.00016796786131315243 0.026133424566768804 -0.003636533743734089 -0.01864431410596914 0.0072572095095041695 0.10814420813557216 0.0020114940581058547 -0.10654895806691193
0.0070400280937816485

fundamental_matrix f8 [3, 3]
00000000: 58d0 a665 cb9a 80be c4c4 3292 f4c5 f33e
00000010: 249f 0650 0040 88bf f850 26fe a3d2 ecbe
00000020: 812f 8015 87fb d53e b5ef f908 b35e c03f
00000030: 9782 4257 2d82 833f d55e 0ff8 ae13 c1bf
00000040: 0000 0000 0000 f03f
-1.237144030115618e-07 1.885725317824352e-05 -0.01184082264155923 -1.374378911548527e-05 5.241043560043932e-06 0.12788999498650147 0.009525636887987061 -0.13341319191271475
1.0
